data.pth (torch, 15959 bytes, 6 tensors)

l1.weight f4 [8, 254]
000000 f2 4b 2d bf c4 df 0c 3d ef c2 44 be 30 19 2b 3f
       -0.6769401 0.034393087 -0.19214986 0.6683531
000010 89 ee da 3e 92 c4 c5 bc c5 41 e1 bd b4 02 d5 3e
       0.42760113 -0.024141584 -0.10998873 0.41603625
000020 e5 30 b6 3e d9 42 bd 3e a9 8e 14 be 8c c3 b8 be
       0.3558418 0.36965063 -0.14507546 -0.3608669
000030 42 c4 f3 be e4 7c 56 3e c2 3f 13 3e 69 e6 85 3e
       -0.4761067 0.2094608 0.1437979 0.26152351
000040 df d8 dd 3e 7c 94 19 bf be cc ed 3e e4 a0 95 bd
       0.43329522 -0.59992194 0.46445268 -0.07306078
000050 af 2b b0 3e f7 e5 0d bf b8 fc 13 bc 7c 45 58 3f
       0.34408328 -0.55429024 -0.009032421 0.84481025
000060 e0 6b 14 bf 86 2d 63 3f 5b c7 7a bd a1 ce a1 be
       -0.57977104 0.8874134 -0.061225276 -0.31602958
000070 1e 42 4d bd dd 0e 5b bf b0 f7 d0 3f 9b 85 82 3d
       -0.050111882 -0.85569555 1.6325588 0.063731395
000080 fd bb 40 bf 51 7b a9 3e b0 43 d2 3d fb d2 5e 3f
       -0.7528685 0.33101895 0.102668166 0.8704068
000090 8d 75 f2 3e 30 0b ff 3b ae 9c a8 3e 06 f8 72 3e
       0.4735531 0.007783316 0.32932037 0.23727426
0000a0 b8 ba b4 bf b9 4f 9c 3f 17 92 08 be aa 30 b2 3f
       -1.4119482 1.221183 -0.13336979 1.3921101
0000b0 0f 50 1a 3f 27 84 64 be 45 b3 69 3e fa 81 4d 3d
       0.6027841 -0.22316037 0.22822292 0.050172783
0000c0 16 0d 06 40 87 72 42 3f 88 f1 bb 3f f3 df 5b bd
       2.0945487 0.75956005 1.4683084 -0.05368037
0000d0 6d d1 fd 3e 51 21 5b bf 34 7c ad 3e 86 f8 94 3e
       0.49573842 -0.8559771 0.33883822 0.29095858
0000e0 2a e2 0b 3f 6b 35 5b bf 3b bc ce 3e 91 58 23 3f
       0.54641974 -0.85628384 0.40377983 0.63807017
0000f0 e2 2d b7 3f 24 4f 90 be b0 ba 5e be ac a4 10 3f
       1.4310877 -0.2818538 -0.21750903 0.5650127
000100 43 37 00 3f 0f 2d 2f 3f 99 5c d2 3d 70 f2 04 3f
       0.5008432 0.6842813 0.10271568 0.5193243
000110 93 ba cf bc 6d 48 9b be fe 9a d5 3f 2e cc f2 3e
       -0.02535752 -0.30328694 1.6687925 0.47421402
000120 08 18 ba 3e 32 7d 17 3f 2b e1 9d 3f 2e a0 8d 3f
       0.3634646 0.5917541 1.2334341 1.1064508
000130 e8 1b be 3f f6 8f 6f 3f e0 f1 5c bf 0b b6 bc be
       1.4852266 0.9357904 -0.8630657 -0.36857638
000140 70 b6 a0 3f 4a a1 a5 3d f5 6e 30 3f f0 fe 1a 3f
       1.2555676 0.08087404 0.68919307 0.60545254
000150 66 cc 5a bf a3 da 5e 3d da f1 21 be 11 af 17 3f
       -0.8546814 0.054407727 -0.15814915 0.59251505
000160 ed 63 5a bf 7c 66 69 3f bb 70 01 3f 21 b5 80 3e
       -0.85308725 0.91172004 0.5056264 0.2513819
000170 89 d1 60 be b9 8a 95 3f 8b 02 a6 3e 2d dd a9 3e
       -0.21954931 1.168296 0.32423815 0.33176556
000180 0f 99 9a 3f 9b cf 19 3f bf 6b df bd 90 e3 96 3f
       1.207796 0.60082406 -0.10909223 1.1788197
000190 19 c4 5f 3e 0c 3d a7 3e 39 77 6f 3f f7 47 2c 3f
       0.21852149 0.32663763 0.93541294 0.6729731
0001a0 82 07 ac 3e c8 ac 54 3d d0 e0 d7 bf 56 19 5c be
       0.33599478 0.05192259 -1.6865482 -0.2149404
0001b0 06 34 c3 be 4f c5 22 3f ef c2 65 bf 20 47 eb 3c
       -0.38125628 0.6358232 -0.8975057 0.028720438
0001c0 7b 43 04 3f 61 88 ad be 53 c4 a4 3e f1 8f d9 bd
       0.5166547 -0.3389311 0.32181033 -0.10623158
0001d0 43 36 b4 3c 30 7d a5 3e 08 d4 11 be e9 1d 21 3f
       0.02199853 0.32322073 -0.1424104 0.62936264
0001e0 ce b8 1f 3e ef 93 4b bb 87 8f b8 bd ed 41 85 bf
       0.15597841 -0.0031063517 -0.09011751 -1.0410744
0001f0 7b ed cb bd 5c 86 ed 3d 3e 47 eb be f7 2c ef bc
       -0.09957405 0.11597893 -0.4595279 -0.029196246
000200 ba 89 cd 3d 61 6a a9 be 9c 9c 91 be 1d 5a a0 3e
       0.10036035 -0.33088973 -0.28439796 0.3131875
000210 3d c9 80 3e 38 95 ba 3e f7 64 c0 be f8 5b d2 bd
       0.25153533 0.3644197 -0.3757703 -0.10271448
000220 2a f7 ca bd d7 7e 12 3f f2 ec 93 be d6 07 2a 3f
       -0.09910424 0.5722479 -0.28891712 0.66418207
000230 52 e5 c1 be 94 49 3d bd 20 1f a9 bc ee 53 82 3f
       -0.3787027 -0.046212748 -0.020644724 1.0181863
000240 27 02 ef 3e 92 6f b8 3e ec e1 04 3f 36 6d 59 3e
       0.4668133 0.3602262 0.5190723 0.21233067
000250 64 a0 cb be ae fe 5f 3f 60 91 5d 3e f3 ce 2a bd
       -0.39770806 0.87497985 0.21637487 -0.04170127
000260 43 62 29 bb 80 ee 0b 3d 83 10 17 c0 28 a3 01 be
       -0.0025845922 0.034163 -2.3603828 -0.12659895
000270 8f 0f da 3e 19 60 a7 be bb 62 e0 3f 72 e9 e4 3f
       0.42589995 -0.32690504 1.753013 1.7883742
000280 a5 72 b8 3e aa 82 9d 3e 21 6b 47 be da 2d 38 3f
       0.36024967 0.3076375 -0.1947446 0.71944964
000290 60 b2 09 3f 79 b8 13 bf bc 2a d9 bd 44 10 61 3e
       0.53787804 -0.5770336 -0.10603854 0.21978861
0002a0 06 84 60 3e 28 cb 96 3f 66 6d 11 3e a7 2e ed be
       0.21925363 1.1780748 0.14201888 -0.46324655
0002b0 52 73 15 3f bf ef 9c 3f 66 6e 35 3f 0a d5 0e 40
       0.5837909 1.2260665 0.7087158 2.2317529
0002c0 8b eb ae 3f fb a5 4d bf 05 ec 22 3f 0d 11 21 3f
       1.3665632 -0.8033139 0.6364139 0.6291664
0002d0 82 50 15 3e 31 8d d2 3e 45 1b ae 3e 7d 15 98 bd
       0.14581493 0.41123345 0.3400518 -0.074259736
0002e0 8e 38 cb 3f 35 05 db 3f fe d4 39 be 5e 16 9b 3e
       1.5876634 1.7110964 -0.18147656 0.30290502
0002f0 88 55 cf 3e 94 72 6b 3f b5 63 8f 3f 8c ce 28 bf
       0.40494943 0.9197171 1.1202303 -0.65940166
000300 1a ab 46 3f ed fd 57 bf ce 77 25 3f 2d 80 21 3f
       0.7760483 -0.84371835 0.6463593 0.63086206
000310 21 8f ca 3f e8 13 7c 3c ff e9 ac 3e ef 55 ac be
       1.582493 0.015385605 0.33772275 -0.33659312
000320 21 8e 9c 3e 9d 67 ea 3e 62 9c 8b bf 88 c3 b8 3f
       0.30577186 0.45782176 -1.0907099 1.4434671
000330 d4 5e 17 3e 0d d0 05 3f 38 ac 5d bf 93 85 aa be
       0.14782268 0.52270585 -0.8659091 -0.33305034
000340 f2 f4 8a bf 6c e7 2a be 6a 22 f0 3d 16 b1 26 3f
       -1.0856001 -0.16689843 0.11725314 0.6511396
000350 a5 8a 4d 3f 0d 21 86 be c7 7f c3 bd 89 97 a8 be
       0.8028968 -0.2619709 -0.09545856 -0.32928112
000360 1c 11 bf 3e c6 67 77 be 0f 26 b6 3e 57 f6 5b 3e
       0.3731774 -0.2416068 0.3557591 0.2148069
000370 b3 9c b3 3e c5 ef 9f be cb b2 3f bc 9c 57 28 3f
       0.3508049 -0.31237617 -0.011700342 0.6575868
000380 cd c3 01 be e9 75 7e bc 04 89 48 3f 34 6d 97 3f
       -0.12672348 -0.015531042 0.7833407 1.1830201
000390 7e 85 d2 3e 6d 4c 12 bb e4 c0 c3 3d db ef 9c be
       0.4111747 -0.0022323385 0.09558275 -0.30651745
0003a0 f5 ad 1e 3f 4f 35 c2 3f 04 d2 3a bf fb dc 51 3e
       0.6198419 1.5172518 -0.7297671 0.20494454
0003b0 54 04 86 be 40 e8 a7 be 81 ce f5 3d 5c 37 1f bd
       -0.26175177 -0.3279438 0.12002278 -0.038871154
0003c0 ea f1 17 3f 2e 02 73 be 04 8d a8 3e f0 7c 9c be
       0.59353507 -0.237313 0.32920086 -0.3056407
0003d0 ef 81 b2 bd 54 4e 4c 3f f5 f2 03 be 0d 3f aa 3e
       -0.08716189 0.7980702 -0.1288565 0.3325123
0003e0 9c 8b ea 3e dc fd 26 bd f1 3a b7 3e b6 5b 89 be
       0.45809639 -0.040769443 0.35787156 -0.26827782
0003f0 96 f3 01 3e 54 da 86 3d ab 3e a4 be 34 0a 33 3e
       0.12690577 0.065846115 -0.32079062 0.17484361

l1.bias f4 [8]
000000 c0 f5 59 3f 03 3c 43 3f 5d 3c 5a 3f 8c c5 39 3f
       0.8514061 0.76263446 0.8524836 0.7256706
000010 2f b4 6f 3f 85 2a 7f 3f d1 eb 61 3f 80 d1 70 3f
       0.93634313 0.99674255 0.8825045 0.9406967

l2.weight f4 [8, 8]
000000 5d 15 4d bf 1b 66 24 40 2a 18 db 3e c4 af f6 3e
       -0.8011072 2.568732 0.42791873 0.48180974
000010 b1 78 92 be 77 ae 4a bf e0 5d b6 3e ef 08 dd 3f
       -0.28607705 -0.7917246 0.35618496 1.7268351
000020 e3 1e 8e 3f 42 78 d2 bf 84 de c1 3f cb 8b af 3f
       1.1103176 -1.644295 1.5146031 1.3714536
000030 7b cf 13 3f 3d 19 2c bf 9b ec 42 3e 2d 68 a7 bd
       0.57738465 -0.6722601 0.1903557 -0.08174167
000040 7d 36 e3 3f 98 3b 18 bf 6f 3e a2 bf a7 6a d8 3f
       1.7751004 -0.5946593 -1.2675303 1.6907548
000050 5b b6 e2 3e ea 04 ff bf 30 5c 2a 3f 45 1f 4a 3f
       0.4427975 -1.9923375 0.66546917 0.78953964
000060 c6 9d a9 3f 07 0b 6e 3f 2f 20 28 bf 9f 54 53 bf
       1.3251274 0.92985576 -0.6567411 -0.82550997
000070 7c 7f c0 3f 45 59 44 3f 61 ec 8d 3f 76 61 88 bf
       1.5038905 0.76698714 1.1087762 -1.0654743
000080 be 79 96 3f ab dd 48 bf ad 30 fb 3f c3 d7 88 bf
       1.1755903 -0.7846324 1.962423 -1.0690845
000090 b2 24 72 bf 5a 74 cf 3f 02 c7 d8 3f bc 7d be 3f
       -0.9458724 1.6207383 1.6935732 1.4882121
0000a0 12 5c 51 bf 99 ea b7 3e 6b 19 b7 3f fb 71 3e bf
       -0.81781113 0.3592117 1.4304632 -0.7439267
0000b0 6b 8e 11 40 32 9c ed be 0c 4b 01 bf f8 ed 73 3e
       2.2743175 -0.4640823 -0.5050514 0.23821247
0000c0 0a 04 8e 3f 32 47 bf 3f ff df 84 3f 79 8e 3e be
       1.1094983 1.4943602 1.0380858 -0.18609037
0000d0 c7 24 03 bf 9a ac f9 be d6 b4 f1 3f 8d 1c ac bf
       -0.5122799 -0.48764497 1.8883312 -1.3446213
0000e0 c9 28 48 bf d7 3c e1 3e 50 82 60 be b4 21 b7 3f
       -0.78187233 0.4399173 -0.2192471 1.430716
0000f0 8f df 8e 3f 8e ba 12 40 48 c8 d5 bf 52 d7 7d 3f
       1.1161975 2.2926364 -1.6701746 0.9915668

l2.bias f4 [8]
000000 5c b7 2b 3c 5d bf 87 be e6 9a 76 3f 18 d0 a5 3e
       0.010480728 -0.26513186 0.96330106 0.32385325
000010 95 78 10 3f 0b 59 31 3f 66 fc ac 3e be ae f5 3e
       0.56433994 0.69276494 0.33786315 0.4798488

l3.weight f4 [41, 8]
000000 6a 5b 8d 3f 27 e0 ff be c5 83 04 3f ce 69 5e c0
       1.1043522 -0.49975702 0.51763564 -3.4752078
000010 94 d5 15 bf ea c9 28 c0 21 38 89 3f 78 64 c2 bf
       -0.5852902 -2.6373239 1.0720254 -1.5186911
000020 5d 54 b4 3d 37 c9 a4 3e c6 e6 f3 3e 4d fd 0a bf
       0.088051535 0.32184765 0.47637004 -0.54292756
000030 29 1c be bf e2 ae cc bd 52 aa ac bf b7 19 f6 3d
       -1.4852344 -0.09994294 -1.3489478 0.120166235
000040 5d aa 8b 3f 3d eb 9f c0 48 10 55 bc 79 4e 72 c0
       1.0911366 -4.9974656 -0.01300437 -3.7860396
000050 10 01 8b bf 6e 15 d1 bd ef f7 6a 3e 2c 19 02 3f
       -1.0859699 -0.102091655 0.22946142 0.5081966
000060 d2 6f 87 3d 90 e3 92 c0 f7 d6 fb 3e a6 3a 98 3f
       0.06613125 -4.5902786 0.49187443 1.1892898
000070 bb 67 49 c0 2f 70 fe bc 2c bf 0d 3f 4f cc e3 bf
       -3.1469562 -0.031059353 0.5536983 -1.7796725
000080 15 af 94 3d 95 56 14 bf 05 81 f0 bf 21 2c 02 3e
       0.07259957 -0.57944614 -1.8789374 0.12712146
000090 93 8b 9d bf 9b 0d 01 c0 d2 fe 53 be b4 94 89 3e
       -1.230822 -2.0164554 -0.20702675 0.26871264
0000a0 3d 7e 85 c0 75 e4 d5 bf ba 07 2c 3d 5e 94 c4 3f
       -4.17166 -1.6710345 0.041999556 1.5357778
0000b0 be 19 5c bf 3f fd 11 3f 9f 4a 05 bf 0d cd 85 bd
       -0.8597678 0.5702705 -0.5206699 -0.06533251
0000c0 49 56 53 3f 0a 9a b9 bf c4 9a 29 3f d3 04 bb be
       0.82553536 -1.4500134 0.6625178 -0.36527118
0000d0 28 48 66 c0 e0 06 1e 3e e8 37 f4 3e b8 c1 62 bf
       -3.598154 0.1543231 0.47698903 -0.8857684
0000e0 9f 75 3f be 98 88 b6 3e 87 f0 0a 3f 8a 1a 88 be
       -0.18697213 0.35651088 0.54273266 -0.26582748
0000f0 db ba 38 bf 41 21 97 3d 4a 82 b4 bf 8e af bb bd
       -0.7216012 0.073793896 -1.4102261 -0.09164344
000100 bb 6e 2d 3e a7 e0 7b c0 1b 3e 82 3e f0 ae cd 3c
       0.16936772 -3.9355867 0.25438008 0.02510783
000110 c7 51 93 3d ef ab 2f c0 50 bc 70 be 28 bb 01 3e
       0.07193332 -2.744869 -0.23509336 0.1266905
000120 fb 0a 72 bf 29 73 0e c0 ca ee 17 c0 b7 f1 04 3f
       -0.94548005 -2.2257788 -2.3739495 0.5193133
000130 95 a1 8e 3d 14 9e 91 3f 39 77 58 c0 36 df 80 3e
       0.06964413 1.1376367 -3.3822768 0.25170296
000140 73 b9 41 c0 2a f3 95 3e ad 75 54 bf 7f 9c f9 3e
       -3.026944 0.29287082 -0.8299206 0.4875221
000150 ea 42 ab 3d 11 96 0e 3f 64 25 3c 3f 20 8d 9b c0
       0.08362372 0.55697733 0.73494554 -4.860977
000160 e1 82 10 bf 70 22 6e be 36 84 22 3f 12 f8 45 3f
       -0.56449705 -0.23255324 0.6348299 0.7733165
000170 ce b5 11 c0 4d d7 7d bf 32 07 24 3f 11 3e ab bf
       -2.2767215 -0.9915665 0.6407348 -1.3378316
000180 af 20 10 3d 02 8a 19 bf 6a ba 41 3e 24 c4 2e bf
       0.03518742 -0.5997621 0.18918768 -0.68268037
000190 93 3d 0f 3f 07 ba 80 bd 4c df d3 bc 40 48 b3 bf
       0.5595333 -0.06285482 -0.025863312 -1.4006424
0001a0 27 da 64 bf 20 48 8b 3f 96 6b a5 3e 50 8d 5a bf
       -0.89395374 1.0881386 0.32308644 -0.85371876
0001b0 6c da ae bf b1 40 3d be 8f 42 5b 3f 49 47 c7 bf
       -1.3660407 -0.18481709 0.85648435 -1.556863
0001c0 96 d0 9b 3f 31 f2 7a c0 a8 ef 46 c0 54 4c 8f bf
       1.217303 -3.9210322 -3.1083775 -1.1195168
0001d0 43 52 1b 3f a1 c4 8f be 06 44 28 3e fe 76 f2 bf
       0.60672396 -0.28079703 0.16432199 -1.8942564
0001e0 71 95 40 c0 db a6 15 bf 84 7f 5a bf 4c 95 ea be
       -3.0091212 -0.58457726 -0.85350823 -0.4581703
0001f0 c2 ec a5 bf 36 30 cc be 73 68 1c c0 40 e0 cb 3f
       -1.2962878 -0.39880532 -2.443875 1.5927811
000200 9d f0 53 c0 72 57 04 bf a2 50 25 c0 2b d2 84 3e
       -3.3115609 -0.5169593 -2.5830464 0.25941595
000210 fe 85 31 3f a4 cd ca bd b8 96 dd 3e 41 a9 34 bf
       0.6934508 -0.09902504 0.43279052 -0.7057076
000220 ea 1e 23 3e 10 37 82 be 91 f6 f2 3d 70 14 8f be
       0.15929762 -0.25432634 0.11863435 -0.2794528
000230 76 30 ab bd 19 5e 5e bd 00 f5 a7 3d 9b 48 29 bf
       -0.083588526 -0.054288957 0.08201027 -0.6612641
000240 ab d6 52 3f c4 99 94 bf 70 a6 be bf c3 03 84 c0
       0.8235881 -1.1609426 -1.4894543 -4.125459
000250 af 63 3a be 5c 06 a8 3f bb 9b d3 bf ed 87 42 bf
       -0.18202089 1.3126941 -1.65319 -0.75988656
000260 0e 76 e0 be f1 13 63 3f 21 3c 30 c0 6f 66 06 bf
       -0.4384007 0.88702303 -2.75367 -0.5250005
000270 18 c3 09 c0 1b 47 76 3f e0 c2 47 be 95 58 28 3e
       -2.1525326 0.9620225 -0.19507933 0.16440041
000280 19 bd 57 3e 2f ba 53 bf 89 12 5b c0 ac 21 1a c0
       0.21068229 -0.8270597 -3.4230063 -2.4083052
000290 86 03 2e 3f 91 09 f3 bf 03 35 61 bf 7b f9 13 3f
       0.67974126 -1.8987294 -0.87971514 0.5780255
0002a0 64 4c 45 bf 8f a8 17 bf cc b7 1b bf 24 15 78 bf
       -0.7706969 -0.59241575 -0.60827327 -0.9690726
0002b0 7b 67 17 bf 4a 1a 29 bf f5 c6 ad be 3d 6d 89 bf
       -0.59142274 -0.6605574 -0.33940855 -1.0736462
0002c0 c7 6c 76 c0 6f aa 3e 3e df 14 f5 bf 1c f4 dd 3e
       -3.8503892 0.18619703 -1.9146994 0.43350303
0002d0 f3 59 84 3f 19 ab 7e c0 79 8f 3e 3f b6 5a 65 c0
       1.033995 -3.979193 0.7443767 -3.5836616
0002e0 18 6d a3 bf f1 63 f4 3e 1e 50 0c c0 cb aa c2 bf
       -1.2767668 0.477325 -2.19239 -1.5208372
0002f0 fa fa e1 3e 34 19 2d 3f f6 d9 d6 bf ab b8 e9 be
       0.44136792 0.6761658 -1.6785266 -0.45648703
000300 5a cc 53 bf f0 93 81 3f 63 b1 94 3f 7f 02 5d c0
       -0.8273369 1.0123272 1.1616634 -3.4532773
000310 9e bf 22 3e 53 ec 4c c0 8c 5e 8f 3c 8d 2a 4a c0
       0.15893409 -3.201924 0.017501138 -3.158847
000320 23 e8 87 c0 41 e6 4e 3f ff cd 0d bf c6 1e cd bf
       -4.247087 0.8082009 -0.5539245 -1.6025016
000330 7a 3f 6e 3e 10 a2 19 c0 cb 44 a1 3e 5a bf 16 be
       0.23266402 -2.4005165 0.31497797 -0.14721432
000340 46 f2 d9 bd 5a 20 2e c0 a8 41 06 c0 0f 3b 3f 3f
       -0.10641913 -2.7207246 -2.0977573 0.7469949
000350 34 dd 27 3f f2 2f 3f c0 bd f6 26 3f 42 a2 5d bf
       0.65571904 -2.9873013 0.6522024 -0.8657571
000360 70 80 d3 bf 8c 65 45 bf bd c4 10 be 4a fb b3 3e
       -1.6523571 -0.77108073 -0.1413755 0.35152656
000370 81 12 84 3f 0f ae 49 c0 e5 dd 61 bf c9 a0 3b bf
       1.0318147 -3.1512487 -0.8822921 -0.73292214
000380 36 8f 67 c0 b7 0b 3d 3f a8 be 82 3f 3a 6e 81 3e
       -3.618116 0.73846 1.0214434 0.2527941
000390 37 3a 61 c0 69 5a 42 c0 70 9e 27 3f 7a e0 25 bf
       -3.5191782 -3.0367682 0.6547613 -0.6479565
0003a0 a6 79 0c c0 6e ab fc be 63 d0 88 be 69 8b 8e 3e
       -2.1949248 -0.4934954 -0.26721486 0.27840737
0003b0 21 7b 3e bf f2 e7 6a c0 9d 10 01 be 51 17 c9 3e
       -0.7440663 -3.6704068 -0.12603994 0.39275602
0003c0 b2 09 67 c0 25 92 1e 3f db 39 50 be 75 eb 99 3d
       -3.6099668 0.6194175 -0.2033457 0.07515613
0003d0 31 1b 9f be 3d 2f 83 3f f0 c6 69 bf 77 bc cf bf
       -0.31075433 1.0248791 -0.9131918 -1.622939
0003e0 88 da 9f 3e 0c 11 22 c0 ca 79 49 3f 07 83 33 3f
       0.31221414 -2.5322905 0.7870146 0.70121807
0003f0 e9 38 23 bd fb c3 39 c0 e3 3e 7b 3f 0b f0 5a c0
       -0.039849196 -2.9025867 0.9814283 -3.420901

l3.bias f4 [41]
000000 3e de 50 be ff e8 a6 be 35 4e 22 3f 7b 05 db 3e
       -0.20397279 -0.32599637 0.63400584 0.4277762
000010 df 96 7c be a2 c6 ca 3e cb 33 32 be 46 58 1d 3e
       -0.24666928 0.3960467 -0.1740257 0.15365705
000020 dc 0f 1a bd 02 8e 4d 3e 62 5e 99 be 78 61 45 bf
       -0.03761278 0.20073703 -0.2995482 -0.7710185
000030 7a 00 69 bb 09 a7 a4 bf 6a e9 46 3d 76 29 f5 3e
       -0.0035553263 -1.2863475 0.048562445 0.47883195
000040 9e 5b 9d 3e 9e 06 cc be 8c 98 31 3e 44 f9 af bd
       0.3073396 -0.398488 0.17343348 -0.085924655
000050 c0 5d 22 3e a9 15 26 bf 15 30 c8 3d f2 6e 50 bf
       0.15856075 -0.648768 0.09774796 -0.8141929
000060 ed 70 51 be 96 15 25 3d 3a 61 c2 bd 7c 8f 9b bf
       -0.20453234 0.04030379 -0.09491201 -1.2153163
000070 69 de d8 3e 00 c5 2a bf a6 07 12 bf 92 30 50 3e
       0.42357185 -0.6670685 -0.5704292 0.20331028
000080 01 84 46 3e 47 a7 98 3e 5c fd 5e bf ab c2 e9 3e
       0.19386293 0.29815122 -0.87105346 0.45656332
000090 8e f1 05 3d 68 56 f8 3d a2 e1 d6 be 8a 73 96 3d
       0.032701068 0.12125856 -0.4196902 0.07346256
0000a0 47 f8 65 bf
       -0.89831966
